…
13/13 [==============================] - 4s 283ms/step - loss: 9.4279e-04 - accuracy: 1.0000 - val_loss: 0.2422 - val_accuracy: 0.9694
Epoch 50/50
13/13 [==============================] - 4s 276ms/step - loss: 6.9704e-04 - accuracy: 1.0000 - val_loss: 0.2664 - val_accuracy: 0.9592
4/4 [==============================] - 0s 50ms/step - loss: 0.2664 - accuracy: 0.9592
Test accuracy: 0.9591836929321289
Model: "sequential"
_________________________________________________________________
 Layer (type)                Output Shape              Param #
=================================================================
 conv2d (Conv2D)             (None, 126, 126, 32)      896

 max_pooling2d (MaxPooling2D  (None, 63, 63, 32)       0
 )

 conv2d_1 (Conv2D)           (None, 61, 61, 32)        9248

 max_pooling2d_1 (MaxPooling  (None, 30, 30, 32)       0
 2D)

 conv2d_2 (Conv2D)           (None, 28, 28, 64)        18496

 max_pooling2d_2 (MaxPooling  (None, 14, 14, 64)       0
 2D)

 flatten (Flatten)           (None, 12544)             0

 dense (Dense)               (None, 64)                802880

 dense_1 (Dense)             (None, 1)                 65

=================================================================
Total params: 831,585
Trainable params: 831,585
Non-trainable params: 0
_________________________________________________________________

Process finished with exit code 0
