…
8/8 [==============================] - 5s 626ms/step - loss: 1.6349e-04 - accuracy: 1.0000 - val_loss: 1.6211 - val_accuracy: 0.8033
Epoch 49/50
8/8 [==============================] - 5s 640ms/step - loss: 1.4246e-04 - accuracy: 1.0000 - val_loss: 1.6042 - val_accuracy: 0.8033
Epoch 50/50
8/8 [==============================] - 5s 580ms/step - loss: 1.3658e-04 - accuracy: 1.0000 - val_loss: 1.6095 - val_accuracy: 0.8033
Model: "sequential"
_________________________________________________________________
 Layer (type)                Output Shape              Param #
=================================================================
 conv2d (Conv2D)             (None, 126, 126, 32)      896

 max_pooling2d (MaxPooling2D  (None, 63, 63, 32)       0
 )

 conv2d_1 (Conv2D)           (None, 61, 61, 64)        18496

 max_pooling2d_1 (MaxPooling  (None, 30, 30, 64)       0
 2D)

 conv2d_2 (Conv2D)           (None, 28, 28, 64)        36928

 max_pooling2d_2 (MaxPooling  (None, 14, 14, 64)       0
 2D)

 flatten (Flatten)           (None, 12544)             0

 dense (Dense)               (None, 64)                802880

 dense_1 (Dense)             (None, 1)                 65

=================================================================
Total params: 859,265
Trainable params: 859,265
Non-trainable params: 0
_________________________________________________________________
2/2 [==============================] - 0s 126ms/step - loss: 1.6095 - accuracy: 0.8033
Test accuracy: 0.8032786846160889

Process finished with exit code 0